EdgeNeXt/best_edgenextdual.pth (torch, 254866 bytes, 166 tensors)

downsample_layers.0.0.weight f4 [24, 3, 4, 4]
-0.09813817 -0.07953115 -0.14022374 -0.104670644 -0.07234448 -0.12014044 -0.10131741 -0.09375562
-0.12343081 -0.023382425 -0.10419784 -0.056735426 -0.09690553 -0.089252144 -0.064933136 -0.058683302
0.042197384 0.109541394 0.10733234 0.16985597 0.14059275 0.15618156 0.18262191 0.21644461
0.1017606 0.12808082 0.17571223 0.19003123 0.16889243 0.1388572 0.17436197 0.23174807
-0.052118722 -0.030611364 -0.01040966 0.021746585 -0.046412937 -0.05022964 -0.031929858 -0.041539416
-0.033128556 0.007567993 -0.064708635 -0.016141118 -0.004050117 -0.036865465 -0.024643853 0.005055856
-0.17197649 -0.14851522 -0.15669909 -0.11010565 -0.018048065 -0.023646882 -0.044097356 -0.01643267
0.08333544 0.09059297 0.04278744 0.046823505 -0.07157222 -0.058056794 -0.038260728 0.023176132
0.06739833 0.0414859 0.072646156 0.01767373 0.0586323 0.017915528 0.012163003 -0.010471843
-0.060110454 -0.07606667 -0.14467447 -0.09690511 -0.18059735 -0.20604576 -0.19261342 -0.16750182
0.035105094 0.005972917 0.030605266 0.013024219 -0.0019668352 0.0032498278 -0.030480465 -0.0045548268
-0.076617874 -0.073404625 -0.0421297 -0.046188094 0.0135639245 0.008912112 -0.036571328 -0.040484153
0.18304369 0.20736618 0.16667536 0.13951129 0.10806466 0.07150071 0.038214456 0.014168943
0.0041177613 -0.008722322 0.0060694604 0.044873245 0.15914088 0.11265899 0.115871646 0.14245537
0.00632906 0.028391927 0.015929962 0.045120806 -0.119616814 -0.13601404 -0.1589806 -0.08072267
-0.06277846 -0.08491627 -0.057574593 -0.055942412 0.049965076 0.07202047 0.033722803 0.11522268
-0.07848759 -0.03161031 -0.07590563 -0.049155913 -0.079758294 -0.059726007 -0.043787904 -0.011136613
-0.018564323 0.00084015203 0.020570973 -0.033142824 0.018356675 -0.022477292 0.01856066 -0.02485907
0.1225184 0.08666771 0.07102054 0.019600159 0.054125857 0.029803943 0.00034444756 -0.02483945
-0.017692711 -0.021802133 -0.044479575 -0.052538067 0.0056652906 -0.02951296 -0.0735964 -0.10664478
-0.084957995 -0.112277 -0.13487057 -0.1779894 -0.016170938 -0.073029354 -0.109465905 -0.15875489
-0.08312044 -0.13567428 -0.15916689 -0.17053722 -0.0652726 -0.1268949 -0.13975401 -0.1697363
-0.017625323 -0.02893005 -0.04934537 0.012229544 0.0073328866 0.013112798 -0.036365084 0.0001013701
0.07049899 0.02834401 9.79038e-05 -0.012989412 0.07182304 0.056429997 0.04790577 0.02521137
0.13483562 0.19346423 0.12286116 0.05395691 0.055678274 0.12253171 0.027498191 0.07108789
-0.0006761011 0.00043076588 -0.03455583 -0.03456779 0.07798845 0.070397496 0.015893213 0.015618887
-0.072936565 -0.04542487 -0.08801975 -0.03320209 -0.1945706 -0.15426524 -0.18520102 -0.1777402
0.021092333 0.022102444 0.051962133 0.04764103 0.18011038 0.1859188 0.18605582 0.27724034
-0.04537566 -0.085660204 -0.03676837 -0.005276523 -0.06162747 -0.06327872 -0.049260106 -0.017753024
-0.011672044 -1.7250388e-05 -0.009494846 -0.008701769 -0.058974195 0.0043135826 0.038478337 0.027137894
0.1655381 0.20111239 0.22565928 0.20885505 0.16999997 0.17987391 0.10659756 0.111032315
0.06183274 0.10618674 0.03539511 0.011249516 0.17286311 0.11490685 0.05970928 0.025646994
00000000: aafc c8bd 3ae1 a2bd d096 0fbe 905d d6bd
00000010: 5829 94bd 310c f6bd 817f cfbd f202 c0bd
00000020: 4bc9 fcbd 808c bfbc ad65 d5bd 6863 68bd
00000030: 6876 c6bd d4c9 b6bd aafb 84bd e75d 70bd
00000040: 2ad7 2c3d 3d57 e03d 0fd1 db3d b9ee 2d3e
00000050: 8cf7 0f3e 0fee 1f3e 3d01 3b3e a8a3 5d3e
00000060: dd67 d03d 9e27 033e e8ed 333e 8c97 423e
00000070: 23f2 2c3e 9530 0e3e f28b 323e 5e4f 6d3e
00000080: 717a 55bd afc4 fabc 478d 2abc e525 b23c
00000090: 7e1b 3ebd 98bd 4dbd e2c8 02bd 3c25 2abd
000000a0: cfb1 07bd edfc f73b f685 84bd 613a 84bc
000000b0: d8b6 84bb 3e00 17bd e8e1 c9bc 98ab a53b
000000c0: 9b1a 30be 6014 18be ba75 20be 127f e1bd
000000d0: 89d9 93bc 1bb7 c1bc 6e9f 34bd cf9d 86bc
000000e0: c5ab aa3d cf88 b93d e241 2f3d 01ca 3f3d
000000f0: 7594 92bd f6cc 6dbd 48b7 1cbd dfdb bd3c
00000100: 2308 8a3d 1eed 293d 82c7 943d 80c8 903c
00000110: 6c28 703d 96c3 923c 5547 473c 1892 2bbc
00000120: 6136 76bd d8c8 9bbd 8b25 14be 3076 c6bd
00000130: 83ee 38be a9fd 52be 743c 45be 9985 2bbe
00000140: 5cca 0f3d 76b8 c33b e5b7 fa3c 8963 553c
00000150: 05e6 00bb 10fb 543b 2bb2 f9bc a840 95bb
00000160: d5e9 9cbd 2a55 96bd 3190 2cbd ba2f 3dbd
00000170: 393b 5e3c 1b04 123c d1cb 15bd b6d2 25bd
00000180: ce6f 3b3e cd57 543e f2ac 2a3e 0cdc 0e3e
00000190: 0151 dd3d f76e 923d c386 1c3d db24 683c
000001a0: 49ee 863b 12e8 0ebc 53e2 c63b 02cd 373d
000001b0: d4f5 223e c2b9 e63d 1d4e ed3d d2df 113e
000001c0: 0164 cf3b 3096 e83c 8d7f 823c 98d0 383d
000001d0: a9f9 f4bd 4447 0bbe cfcb 22be ed51 a5bd
000001e0: fe91 80bd 95e8 adbd 56d3 6bbd df23 65bd
000001f0: 2ea8 4c3d 787f 933d ec20 0a3d def9 eb3d
00000200: 1abe a0bd d079 01bd 6974 9bbd b657 49bd
00000210: 5158 a3bd 42a3 74bd f25a 33bd 5776 36bc
00000220: 3514 98bc a63d 5c3a 7584 a83c c5c0 07bd
00000230: bd60 963c 4c22 b8bc 860c 983c 40a5 cbbc
00000240: edea fa3d d77e b13d 3873 913d 8390 a03c
00000250: 13b3 5d3d 6627 f43c f896 b439 1a7c cbbc
00000260: 4ef0 90bc 639a b2bc 3730 36bd 2832 57bd
00000270: e7a3 b93b 2ac5 f1bc b6b9 96bd 9468 dabd
00000280: 75fe adbd 7cf1 e5bd 831b 0abe da42 36be
00000290: ea78 84bc 6a90 95bd a92f e0bd a490 22be
000002a0: 0d3b aabd 33ee 0abe a5fc 22be 4fa1 2ebe
000002b0: a4ad 85bd bdf0 01be ad1b 0fbe 5acf 2dbe
000002c0: fb62 90bc b6fe ecbc 5f1e 4abd 6d5e 483c
000002d0: b648 f03b 10d7 563c 8ef3 14bd a896 d438
000002e0: c661 903d b231 e83c b451 cd38 8bd1 54bc
000002f0: f517 933d 2423 673d d738 443d 1388 ce3c
00000300: 5912 0a3e 7d1b 463e a29e fb3d ec01 5d3d
00000310: e70e 643d e8f1 fa3d e343 e13c 8796 913d
00000320: 603c 31ba 6bd8 e139 6a8a 0dbd f496 0dbd
00000330: 69b8 9f3d 902c 903d 7c32 823c 5ce6 7f3c
00000340: c45f 95bd 6e0f 3abd b343 b4bd eafe 07bd
00000350: 843d 47be b5f7 1dbe 56a5 3dbe 8701 36be
00000360: d4c9 ac3c 2f10 b53c 3fd6 543d 3e23 433d
00000370: db6e 383e 7f61 3e3e 6b85 3e3e 72f2 8d3e
00000380: d4db 39bd 9e6e afbd 6e9a 16bd afe6 acbb
00000390: 166d 7cbd 4698 81bd f7c4 49bd ca6e 91bc
000003a0: 1a3c 3fbc edb4 90b7 4590 1bbc dd91 0ebc
000003b0: ed8e 71bd f458 8d3b 769b 1d3d 4a50 de3c
000003c0: d282 293e 68f0 4d3e 3a13 673e 19de 553e
000003d0: 7914 2e3e de30 383e d24f da3d e964 e33d
000003e0: 5444 7d3d 6f78 d93d 76fa 103d e44f 383c
000003f0: 0703 313e 4854 eb3d b891 743d a519 d23c

downsample_layers.0.0.bias f4 [24]
-0.30040267 -0.07897106 0.21416736 0.04351016 0.17407584 0.17241538 -0.13298902 -0.16341072
-0.23765762 -0.07250949 0.13817996 -0.12121376 0.2729137 0.1489552 0.26294804 -0.004875097
-0.11414116 -0.20942727 -0.18077472 0.03952012 0.047946125 -0.10210556 -0.18106554 0.0075307307
00000000: 61ce 99be 94bb a1bd b04e 5b3e b637 323d
00000010: f040 323e a88d 303e 462e 08be 2455 27be
00000020: 855c 73be db7f 94bd 0c7f 0d3e eb3e f8bd
00000030: 58bb 8b3e b687 183e 20a1 863e 47bf 9fbb
00000040: d7c2 e9bd 1a74 56be 021d 39be d9df 213d
00000050: 2863 443d b81c d1bd 3f69 39be 59c4 f63b

downsample_layers.0.1.weight f4 [24]
1.1384509 0.5615186 0.9436059 0.8375058 0.85613304 0.9574189 0.68474346 0.741286
0.95253706 0.79585755 1.18874 1.0505826 1.1264387 0.7832729 0.905164 0.7073787
0.57041246 1.0918233 0.48411596 0.8371513 1.0181768 0.7734611 0.9593171 0.90507495
00000000: c2b8 913f afbf 0f3f 2890 713f c866 563f
00000010: 892b 5b3f 6819 753f 594b 2f3f ebc4 3d3f
00000020: 78d9 733f 52bd 4b3f a228 983f 7e79 863f
00000030: 252f 903f 9384 483f d4b8 673f c516 353f
00000040: 8d06 123f dec0 8b3f 0cde f73e 8c4f 563f
00000050: 9e53 823f 8c01 463f ce95 753f feb2 673f

downsample_layers.0.1.bias f4 [24]
0.07435543 0.17160934 -0.045106847 0.11145362 -0.048707325 -0.092351444 -0.02014944 -0.1647376
0.077018216 -0.12203712 -0.093366705 0.11065837 -0.013138566 -0.027217839 -0.034530386 0.12979445
0.031779934 0.027609812 0.20537078 -0.039075233 -0.023594575 -0.009932882 -0.022197157 0.051434338
00000000: a947 983d 5cba 2f3e f5c1 38bd cc41 e43d
00000010: 5581 47bd c122 bdbd 7010 a5bc f9b0 28be
00000020: babb 9d3d 99ee f9bd 0b37 bfbd dba0 e23d
00000030: 2443 57bc f2f7 debc bc6f 0dbd d6e8 043e
00000040: ad2b 023d f92d e23c b84c 523e 5a0d 20bd
00000050: 6949 c1bc 87bd 22bc d0d6 b5bc d0ac 523d

downsample_layers.1.0.weight f4 [24]
1.0992147 0.5031767 0.92902356 0.818673 0.8124136 0.8787696 0.93205416 0.83242804
0.8454892 0.78694606 1.1725916 0.9720793 1.1656877 0.81958354 0.9414697 0.7626113
0.8133093 1.0689667 0.4998277 0.90294576 1.0272996 0.7504213 1.0287406 0.76613057
00000000: 11b3 8c3f 30d0 003f 7dd4 6d3f 8e94 513f
00000010: 56fa 4f3f 0bf7 603f 1a9b 6e3f 011a 553f
00000020: fb71 583f 4c75 493f 7b17 963f 30da 783f
00000030: 4135 953f 3ad0 513f 2904 713f 7f3a 433f
00000040: 0a35 503f e7d3 883f 6be9 ff3e 7427 673f
00000050: 8e7e 833f 9c1b 403f c6ad 833f 2221 443f

downsample_layers.1.0.bias f4 [24]
0.07807553 0.20064153 -0.047549486 0.13574186 -0.06796991 -0.091977894 -0.0097644385 -0.15168226
0.17920597 -0.13776189 -0.10546789 0.17070614 -0.072338864 -0.11034242 -0.0610261 0.03083795
-0.037539035 0.081938036 0.15306409 -0.13503763 -0.009870972 -0.1418326 0.002323868 -0.06941158
00000000: 10e6 9f3d f974 4d3e 40c3 42bd eaff 0a3e
00000010: cf33 8bbd e85e bcbd 06fb 1fbc 9852 1bbe
00000020: c581 373e 7411 0dbe 8dff d7bd 97cd 2e3e
00000030: 6626 94bd 35fb e1bd 81f6 79bd de9f fc3c
00000040: 88c2 19bd 21cf a73d d5bc 1c3e 4e47 0abe
00000050: dbb9 21bc 913c 11be 094c 183b a927 8ebd

downsample_layers.1.1.weight f4 [24, 24, 2, 2]
0.25700146 -0.09385028 0.04995179 -0.01364127 0.0436304 -0.1326359 0.03143693 -0.15119201
0.037885927 0.0074848835 0.14641397 -0.035770062 -0.1668445 0.11398046 -0.041468855 0.14897072
0.075936176 0.027030028 0.022235358 0.1153354 0.0072435457 -0.07293722 0.14372562 -0.037427388
0.08979088 -0.1151669 -0.14261876 0.24023682 -0.001405926 -0.14049013 0.023104096 -0.09943963
-0.09995425 -0.08197375 -0.17546882 0.20112135 0.043464933 -0.15276113 0.10903726 -0.14952102
0.17946802 -0.13332433 0.09186366 -0.08513239 0.0040292037 -0.10310783 -0.031706978 0.0810362
0.09233934 0.13791342 0.0693734 -0.033637192 -0.06628038 -0.03750316 -0.14716591 0.13120425
0.045141958 0.10684993 0.08665395 -0.15371126 -0.01707824 -0.16205494 -0.08261939 0.04638336
0.20039542 -0.01529066 0.12970272 -0.08232451 -0.15855682 0.07958118 -0.11947541 0.107732505
0.14750397 -0.18596128 -0.033725474 -0.05247562 -0.2688561 -0.103636906 -0.03667567 -0.0014816483
-0.0795022 0.3597752 -0.066874206 0.08353488 -0.076500565 -0.012750352 -0.23109336 0.05413795
-0.18389808 0.066974215 -0.061307993 0.032568514 -0.17482343 0.050851956 0.11951877 -0.16914605
0.047104154 0.03457713 0.003942371 0.046846215 -0.038235866 -0.003651115 0.03814181 0.07560709
-0.00040031935 0.023220686 -0.061231453 -0.11293883 0.004533897 0.013454131 -0.014905858 0.051375676
0.035300665 0.010068975 -0.14945261 -0.21637511 -0.0305882 0.03747055 -0.082694866 -0.11016199
0.1571486 0.032783084 -0.073586546 -0.22960755 -0.09190314 -0.11465291 -0.032454215 -0.034973864
-0.0012100935 0.019301679 -0.07340201 -0.12121482 -0.0959429 -0.119682536 -0.08969278 -0.084534235
-0.17912711 -0.1516454 -0.23504436 -0.20544527 0.09492908 0.08571125 0.14831723 0.12801518
-0.04694545 -0.00059651415 -0.06908706 0.020430908 0.059540845 0.038749885 -0.18445279 -0.26774913
-0.10065268 -0.024273222 0.0047426624 0.023870869 0.011517551 0.016434068 0.016606528 0.016317178
0.0033279755 -0.019715462 -0.03702707 0.008798491 0.019197222 -0.02063678 0.081271335 0.024008766
0.007529579 0.016101439 0.048917875 0.02259518 -0.13284718 -0.081830345 -0.069990434 -0.17972003
0.02626461 0.033098955 0.050651822 0.095974155 0.07330485 0.0037822484 -0.056511533 -0.16698086
-0.09088922 -0.063451506 0.022457456 -0.02879186 -0.01975089 -0.015668144 -0.006677102 -0.045839056
-0.16043103 -0.14264785 0.132463 0.029677413 0.18439919 -0.05235585 -0.0032905894 -0.07117838
-0.029185468 -0.016689051 0.21309748 -0.04053083 0.0068491236 0.04133165 -0.021136496 0.061684325
-0.05445013 0.12924029 0.2703099 -0.05490683 0.08722806 0.12021136 0.09887794 -0.14504883
-0.40082785 0.14083561 0.10719188 0.10197241 -0.042500872 0.17733257 -0.0935458 0.011634149
-0.04680849 0.36507094 -0.007720658 0.042721488 0.016403766 0.04530487 -0.033816323 -0.03761281
0.20786695 0.063816644 0.18823577 -0.11879668 0.01243445 -0.059346277 -0.008668526 -0.094287574
0.07061085 -0.112894334 0.14368372 -0.027273875 -0.06488936 0.122979574 -0.032871224 -0.02317469
0.12184818 -0.15365043 0.052012287 -0.09448676 0.033060756 0.021739474 -0.19572178 -0.043391865
00000000: b295 833e 9334 c0bd 409a 4c3d a27f 5fbc
00000010: cab5 323d b5d1 07be 03c4 003d 14d2 1abe
00000020: 462e 1b3d c143 f53b 8bed 153e a183 12bd
00000030: 49d9 2abe 966e e93d 3fdb 29bd c88b 183e
00000040: 6d84 9b3d 146e dd3c ed26 b63c f734 ec3d
00000050: 445b ed3b 1c60 95bd cf2c 133e 764d 19bd
00000060: 48e4 b73d a0dc ebbd a70a 12be a400 763e
00000070: 0c47 b8ba a5dc 0fbe cd44 bd3c 01a7 cbbd
00000080: d0b4 ccbd dae1 a7bd 19ae 33be c1f2 4d3e
00000090: 4908 323d 6a6d 1cbe ed4e df3d 0a1c 19be
000000a0: 77c6 373e 2c86 08be 0423 bc3d e459 aebd
000000b0: 6907 843b 332a d3bd 2ddf 01bd 4ff6 a53d
000000c0: 681c bd3d 2d39 0d3e a413 8e3d 27c7 09bd
000000d0: 02be 87bd ea9c 19bd a9b2 16be 685a 063e
000000e0: c6e6 383d 23d4 da3d a077 b13d 7c66 1dbe
000000f0: aae7 8bbc bbf1 25be 5b34 a9bd 7afc 3d3d
00000100: 7534 4d3e ad85 7abc cad0 043e c199 a8bd
00000110: b85c 22be 75fb a23d 86af f4bd dca2 dc3d
00000120: 480b 173e a26c 3ebe b923 0abd adf0 56bd
00000130: 82a7 89be 963f d4bd 3a39 16bd de33 c2ba
00000140: 0dd2 a2bd 7434 b83e 58f5 88bd 5614 ab3d
00000150: 54ac 9cbd dae6 50bc bda3 6cbe c1bf 5d3d
00000160: c74f 3cbe c729 893d 171e 7bbd 9066 053d
00000170: ea04 33be 244a 503d 42c6 f43d 9f34 2dbe
00000180: 49f0 403d c0a0 0d3d 012f 813b d1e1 3f3d
00000190: 369d 1cbd 8c47 6fbb 963a 1c3d e4d7 9a3d
000001a0: f4e1 d1b9 4f39 be3c d5cd 7abd 794c e7bd
000001b0: 1691 943b b76e 5c3c b337 74bc 4d6f 523d
000001c0: 6e97 103d 58f8 243c 1b0a 19be 7091 5dbe
000001d0: 1b94 fabc b87a 193d ed5b a9bd 9c9c e1bd
000001e0: 90eb 203e 8e47 063d 8bb4 96bd 3e1e 6bbe
000001f0: b737 bcbd 25cf eabd b6ee 04bd c140 0fbd
00000200: 009c 9eba 8e1e 9e3c cb53 96bd 7a3f f8bd
00000210: b67d c4bd 1e1c f5bd d9b0 b7bd 4920 adbd
00000220: 196d 37be ef48 1bbe 78af 70be 3f60 52be
00000230: 2d6a c23d 6189 af3d 79e0 173e 6916 033e
00000240: df49 40bd 635f 1cba 847d 8dbd b85e a73c
00000250: 1ae1 733d 33b8 1e3d 31e1 3cbe 6a16 89be
00000260: fe22 cebd a3d8 c6bc 5668 9b3b d78c c33c
00000270: 1cb4 3c3c bda0 863c 6a0a 883c 9aab 853c
00000280: 2a1a 5a3b 5282 a1bc b2a9 17bd 8c27 103c
00000290: 7e43 9d3c 770e a9bc 9671 a63d 08ae c43c
000002a0: b0ba f63b 2ae7 833c 1c5e 483d 8719 b93c
000002b0: 1709 08be ab96 a7bd 2557 8fbd 8708 38be
000002c0: e128 d73c c592 073d 4978 4f3d 198e c43d
000002d0: da20 963d 99df 773b a378 67bd 08fd 2abe
000002e0: 2124 babd ddf2 81bd b3f8 b73c e8dc ebbc
000002f0: 9ecc a1bc 7b5a 80bc 97cb dabb bcc1 3bbd
00000300: 0848 24be 4712 12be 61a4 073e 0c1e f33c
00000310: 24d3 3c3e 1673 56bd eea6 57bb f8c5 91bd
00000320: 5d16 efbc 7ab7 88bc 3a36 5a3e a803 26bd
00000330: 9d6e e03b 604b 293d 7226 adbc b4a8 7c3d
00000340: 1907 5fbd 9157 043e 0f66 8a3e fce5 60bd
00000350: a0a4 b23d 6031 f63d 8480 ca3d ae87 14be
00000360: 4f39 cdbe 3637 103e 6b87 db3d e9d6 d03d
00000370: 6515 2ebd ab96 353e f194 bfbd 289d 3e3c
00000380: 42ba 3fbd 94ea ba3e 93fd fcbb bafc 2e3d
00000390: 3161 863c 9991 393d fc82 0abd e40f 1abd
000003a0: 13db 543e 4db2 823d e1c0 403e ac4b f3bd
000003b0: ddb9 4b3c 1515 73bd 6f06 0ebc d819 c1bd
000003c0: 6c9c 903d 2535 e7bd d321 133e 766d dfbc
000003d0: b6e4 84bd b7dc fb3d faa3 06bd d9d8 bdbc
000003e0: 8a8b f93d 8a56 1dbe d60a 553d 4682 c1bd
000003f0: b76a 073d fb16 b23c 4a6b 48be abbb 31bd

downsample_layers.1.1.bias f4 [24]
-0.00022173607 0.026258003 -0.017944548 0.0066777454 -0.0057827695 0.044426087 -0.021444557 0.075756386
-0.04916052 -0.011261755 -0.05025373 -0.061392557 0.09369966 -0.02229915 0.059557576 0.029172339
0.026949055 -0.026203102 0.028013108 -0.032675195 0.08370418 -0.037347242 -0.0040291967 -0.1358343
00000000: d381 68b9 061b d73c 7200 93bc fdd0 da3b
00000010: 637d bdbb 21f8 353d 7fac afbc 2a26 9b3d
00000020: 8b5c 49bd 3983 38bc dbd6 4dbd c376 7bbd
00000030: 9be5 bf3d b5ac b6bc a5f2 733d d4fa ee3c
00000040: 44c4 dc3c e3a7 d6bc bf7b e53c 6dd6 05bd
00000050: 196d ab3d 6cf9 18bd 5a07 84bb 2618 0bbe

downsample_layers.2.0.weight f4 [24]
1.1768988 0.79723024 1.014499 0.9033117 1.0428001 0.9373754 0.8780442 0.69463456
0.8913832 1.1104009 0.71618867 0.7901298 0.79101884 0.9253844 0.81895554 0.89793986
0.6409228 0.86580324 0.92991567 0.7584661 0.72701114 0.9078405 0.8009327 0.82793134
00000000: 9fa4 963f 4817 4c3f 1adb 813f 703f 673f
00000010: 797a 853f d6f7 6f3f 81c7 603f 92d3 313f
00000020: b031 643f 9e21 8e3f 2458 373f f245 4a3f
00000030: 3680 4a3f fee5 6c3f 12a7 513f 63df 653f
00000040: 8413 243f 48a5 5d3f f40e 6e3f d62a 423f
00000050: 671d 3a3f 3c68 683f ed09 4d3f 4ff3 533f

downsample_layers.2.0.bias f4 [24]
0.08832901 0.26200643 -0.08537819 -0.062929206 0.06790476 0.06611871 0.07665268 -0.37167275
-0.03286825 -0.07538681 0.13006644 -0.11866484 -0.015696837 -0.1985399 0.10145428 0.069980025
0.08312917 -0.06453658 0.050293826 -0.05911032 0.039532363 -0.035858132 -0.29582298 0.09638221
00000000: d7e5 b43d b525 863e c3da aebd 07e1 80bd
00000010: a711 8b3d 3f69 873d 15fc 9c3d e44b bebe
00000020: dca0 06bd 6664 9abd 2330 053e 8d06 f3bd
00000030: a796 80bc 0b4e 4bbe 43c7 cf3d b051 8f3d
00000040: a03f aa3d c12b 84bd e600 4e3d aa1d 72bd
00000050: b0ec 213d fadf 12bd 1c76 97be 0964 c53d

downsample_layers.2.1.weight f4 [24, 24, 2, 2]
0.092946835 0.07272699 -0.23683938 0.06500945 -0.011287498 0.101642765 -0.0072695906 -0.051235665
0.13114105 -0.053448148 0.049673773 -0.061608586 -0.09458004 -0.068549424 0.030741083 -0.019561457
0.12254631 -0.10505232 0.05083384 -0.05392856 0.00613445 0.115145795 -0.0518133 -0.046485353
0.00094594946 -0.05516101 0.026246106 -0.0119199185 -0.13718045 0.07984468 0.021173446 0.11725256
0.051822398 -0.013864319 0.11406256 0.07591946 0.21975695 0.07422152 0.24531506 -0.08542455
0.15775828 0.029475069 0.05751692 0.066799335 0.120751955 -0.025580976 0.022317912 0.0039199023
-0.14101382 0.051629916 -0.0015947694 0.012545618 -0.054063052 0.14567484 0.107679136 0.22349626
-0.16087124 -0.10882399 -0.15600738 -0.008980556 0.0076538026 0.14499772 -0.1242761 -0.0224962
0.0021091592 0.09372031 -0.104463756 -0.05339346 0.016588664 -0.16596793 -0.07346254 0.04525287
-0.0011352398 -0.0014900068 0.20477019 0.046980903 0.08648204 -0.07039519 0.041034013 -0.004313613
0.0589695 0.015534524 0.17233564 -0.12386158 -0.118554875 -0.13715522 -0.28709128 0.0105737345
0.0388966 -0.04399955 0.05345313 0.08462171 0.03849969 -0.09525143 0.055929665 -0.015793655
-0.28032553 0.2144159 0.025230769 -0.017413223 0.07150929 0.008021436 0.1621206 0.10462929
0.15059689 0.15920442 -0.062641434 -0.025402093 -0.12087698 -0.048244257 -0.08711317 -0.13576664
0.16220285 0.075914085 -0.018564235 0.07961943 0.20090404 0.0050492464 0.1280222 0.095970996
-0.1317435 -0.0019720432 -0.029240446 -0.005486718 0.0180424 -0.038709905 -0.032573815 -0.08590977
0.07018016 0.13745427 0.04716556 0.11719825 -0.045580536 0.24309061 0.12537919 -0.27186066
-0.11874027 0.059869066 0.016638584 -0.18605131 0.040743597 -0.074012086 0.11984695 0.20148224
0.06814237 0.030956985 0.05251268 -0.08407841 0.13059114 -0.024487093 -0.15579017 -0.18467122
0.04592084 -0.031311784 -0.024944887 -0.0005044871 0.148379 -0.03855357 0.10668036 0.13380912
0.036665298 0.037266705 0.08258089 -0.044525918 -0.13355067 0.0015824566 -0.09876286 -0.10699243
0.038673084 -0.121800706 -0.05249874 -0.01851808 -0.06379687 -0.007337142 -0.09753404 -0.0101275025
0.0716363 -0.07658275 0.04653221 0.18730676 0.16573192 -0.02661955 -0.0826374 -0.03341104
0.007884319 -0.044496924 0.058123562 0.046698276 -0.13492242 -0.022758521 -0.06721395 -0.03745947
-0.06438504 0.024828924 -0.037480604 0.045958843 0.027896559 0.047589526 0.13507804 0.086165935
0.050466686 -0.01847516 0.25766453 -0.34014285 0.11358688 0.016037121 -0.0012957277 -0.07025875
-0.19111073 0.15183681 -0.15742315 0.12696134 -0.024175128 0.11034519 0.018113438 0.19060813
0.14787158 0.021041261 0.07830058 -0.09770046 0.025209494 -0.10305591 -0.0921668 -0.00090989156
-0.007860992 -0.07275819 0.1964246 0.040766135 0.045708425 0.38829583 -0.19941115 0.16100815
0.08314661 -0.11716441 0.2102564 0.13539596 -0.10824219 0.04154899 -0.10464004 -0.053398516
0.022682644 0.02668741 0.054144565 0.1744513 -0.01725057 -0.3610828 0.1260181 -0.16063279
0.005814395 -0.19090167 0.16535223 -0.12207661 -0.052049052 0.116908945 -0.044625614 0.11187849
00000000: e95a be3d e3f1 943d 0686 72be ad23 853d
00000010: 33ef 38bc 152a d03d bf35 eebb 7ddc 51bd
00000020: d749 063e 72ec 5abd ba76 4b3d 4959 7cbd
00000030: 2eb3 c1bd a463 8cbd b9d4 fb3c 593f a0bc
00000040: 8ff9 fa3d ac25 d7bd 2537 503d 32e4 5cbd
00000050: 7f03 c93b 8fd1 eb3d 2f3a 54bd 6d67 3ebd
00000060: 98f9 773a 83f0 61bd 1302 d73c c34b 43bc
00000070: 0879 0cbe 9c85 a33d ef73 ad3c 1c22 f03d
00000080: b943 543d 2b27 63bc a299 e93d a97b 9b3d
00000090: f707 613e 7401 983d df33 7b3e 11f3 aebd
000000a0: 638b 213e b375 f13c dd96 6b3d 17ce 883d
000000b0: cd4c f73d 328f d1bc 0ed4 b63c 8672 803b
000000c0: ed65 10be e479 533d 9507 d1ba 238c 4d3c
000000d0: 3871 5dbd c92b 153e e186 dc3d 34dc 643e
000000e0: 6ebb 24be 1ddf debd 66c0 1fbe 2f23 13bc
000000f0: c0cc fa3b 487a 143e 7884 febd f349 b8bc
00000100: d239 0a3b 6ff0 bf3d 18f1 d5bd 1ab3 5abd
00000110: f3e4 873c 7ff3 29be 8773 96bd 135b 393d
00000120: 54cc 94ba 554c c3ba 47af 513e 0c6f 403d
00000130: 7f1d b13d 5a2b 90bd 4813 283d 3559 8dbb
00000140: 018a 713d 8484 7e3c c178 303e 24ab fdbd
00000150: e6cc f2bd 6b72 0cbe a1fd 92be 753d 2d3c
00000160: 0b52 1f3d df38 34bd abf1 5a3d 264e ad3d
00000170: dab1 1d3d 2f13 c3bd 8116 653d b261 81bc
00000180: d486 8fbe d78f 5b3e c2b0 ce3c 2da6 8ebc
00000190: 7673 923d 576c 033c f102 263e e247 d63d
000001a0: 1236 1a3e 7c06 233e 274a 80bd 0d18 d0bc
000001b0: 5a8e f7bd c59b 45bd 6468 b2bd 6906 0bbe
000001c0: 8118 263e d878 9b3d 0614 98bc 830f a33d
000001d0: cab9 4d3e 2674 a53b 4018 033e 718c c43d
000001e0: c5e7 06be 653d 01bb a989 efbc edc9 b3bb
000001f0: a8cd 933c 478e 1ebd 1f6c 05bd 76f1 afbd
00000200: 9eba 8f3d d0c0 0c3e ad30 413d a305 f03d
00000210: a8b2 3abd bfec 783e 6763 003e 5231 8bbe
00000220: 192e f3bd 4439 753d a44d 883c 3c84 3ebe
00000230: c2e2 263d a693 97bd 5172 f53d 5c51 4e3e
00000240: 3a8e 8b3d 8199 fd3c 8917 573d 4d31 acbd
00000250: afb9 053e 2899 c8bc 7587 1fbe 741a 3dbe
00000260: 7e17 3c3d c940 00bd 3859 ccbc 8e3f 04ba
00000270: aaf0 173e 59ea 1dbd 3c7b da3d 4205 093e
00000280: 5a2e 163d f9a4 183d 2b20 a93d cf60 36bd
00000290: 82c1 08be 6f6a cf3a 2f44 cabd d91e dbbd
000002a0: ab67 1e3d a672 f9bd eb08 57bd 3ab3 97bc
000002b0: efa7 82bd 686c f0bb edbf c7bd d3ed 25bc
000002c0: 0db6 923d 6bd7 9cbd 8f98 3e3d 58cd 3f3e
000002d0: a1b5 293e 3e11 dabc cc3d a9bd 04da 08bd
000002e0: 3b2d 013c 6842 36bd f912 6e3d b146 3f3d
000002f0: 1a29 0abe 1470 babc 78a7 89bd 1a6f 19bd
00000300: 4edc 83bd 0766 cb3c 4385 19bd 573f 3c3d
00000310: 5387 e43c 3ced 423d e651 0a3e c477 b03d
00000320: 28b6 4e3d 3859 97bc 9bec 833e 3427 aebe
00000330: 3da0 e83d 4860 833c 68d5 a9ba d2e3 8fbd
00000340: 88b2 43be 1c7b 1b3e 8933 21be 2702 023e
00000350: eb0a c6bc a9fc e13d a262 943c c72e 433e
00000360: a66b 173e b95e ac3c 0e5c a03d 2e17 c8bd
00000370: 2484 ce3c fa0e d3bd f2c1 bcbd ca85 6eba
00000380: 64cb 00bc 3f02 95bd 8823 493e 64fa 263d
00000390: c238 3b3d b6ce c63e 7032 4cbe 52df 243e
000003a0: c548 aa3d e5f3 efbd 744d 573e 3da5 0a3e
000003b0: 15ae ddbd 462f 2a3d 844d d6bd 67b8 5abd
000003c0: f4d0 b93c 8e9f da3c b1c6 5d3d 5da3 323e
000003d0: 1151 8dbc d8df b8be e40a 013e ec7c 24be
000003e0: ae86 be3b ba7b 43be 1852 293e 4d03 fabd
000003f0: 6331 55bd f56d ef3d 59c9 36bd 8d20 e53d

downsample_layers.2.1.bias f4 [24]
-0.04412972 -0.13577054 0.08292581 0.009116508 0.08938282 -0.058892705 -0.025655648 -0.10939869
-0.019867202 0.038230367 0.06106297 0.120873466 0.09793409 0.09163854 -0.115507916 0.060119204
-0.014554922 -0.09522357 -0.06678023 -0.055091746 -0.03831882 -0.09744623 -0.105924934 -0.0048450893
00000000: 5ec1 34bd 6f07 0bbe 02d5 a93d 685d 153c
00000010: 570e b73d 7a39 71bd cb2b d2bc 6c0c e0bd
00000020: 8bc0 a2bc 7297 1c3d 2a1d 7a3d 828c f73d
00000030: ab91 c83d fdac bb3d 6a8f ecbd 8e3f 763d
00000040: c477 6ebc 9304 c3bd 13c4 88bd e2a7 61bd
00000050: 32f4 1cbd e491 c7bd 2cef d8bd 8ec3 9ebb

downsample_layers.3.0.weight f4 [24]
0.9638762 0.8761154 0.97456497 0.87451816 1.0904341 0.7518207 0.79273856 0.916835
0.95678025 1.0654342 0.7400218 0.833086 0.67255694 0.7463714 1.5740249 1.0477136
0.9146128 0.83933234 1.2434653 0.9150789 0.8222141 0.745855 0.9628612 0.84805495
00000000: 97c0 763f 1949 603f 177d 793f 6ce0 5f3f
00000010: 5893 8b3f 5277 403f eaf0 4a3f b3b5 6a3f
00000020: 8def 743f 2660 883f 1272 3d3f 2045 553f
00000030: b12c 2c3f 3212 3f3f a679 c93f 7b1b 863f
00000040: 1124 6a3f 7cde 563f df29 9f3f 9c42 6a3f
00000050: a07c 523f 5af0 3e3f 127e 763f 211a 593f

downsample_layers.3.0.bias f4 [24]
-0.081546955 -0.1181699 -0.060623195 0.020899318 -0.0068142875 0.24500138 -0.1382439 -0.002154223
-0.014466364 0.109338775 -0.20933259 -0.112800345 -0.16836494 -0.16963398 -0.21677925 0.023237402
-0.14510484 0.079288214 -0.034906834 -0.19197556 0.090577595 0.25754654 -0.058119487 0.04236778
00000000: 1702 a7bd 0f03 f2bd 0750 78bd 0c35 ab3c
00000010: 634a dfbb a4e1 7a3e cf8f 0dbe dd2d 0dbb
00000020: 5404 6dbc 02ed df3d 485b 56be de03 e7bd
00000030: dc67 2cbe 88b4 2dbe 61fb 5dbe 5d5c be3c
00000040: 5d96 14be dc61 a23d 78fa 0ebd 3e95 44be
00000050: bf80 b93d 24dd 833e b30e 6ebd d689 2d3d

downsample_layers.3.1.weight f4 [24, 24, 2, 2]
0.031794913 -0.0016568939 0.04536437 0.013513887 0.029637609 0.038062688 0.11453283 0.08197318
0.12026372 0.00014893865 -0.048074853 -0.1970266 0.102986656 0.018477991 0.055113804 -0.08011411
0.021438286 -0.14917272 0.17121486 0.19625956 0.015148661 -0.03920905 -0.09898076 -0.09662961
-0.23652455 -0.03979953 -0.027541531 0.104621224 0.022228885 0.10435053 -0.0059905266 -0.03562161
0.02003005 -0.013953746 -0.06389242 -0.14718097 -0.012719867 -0.19174828 0.28655383 0.19347873
0.037204497 0.095945336 0.018659076 -0.017834878 -0.08287967 0.18731143 -0.035244107 0.12799233
-0.13892557 0.08506484 0.054047283 0.112312585 -0.037347246 0.018953983 0.16859137 0.08575761
-0.06460215 0.07356868 -0.06123237 -0.11050708 -0.2803936 -0.25465563 0.10586074 0.24697536
-0.006686481 0.07172562 -0.18400475 -0.22705713 0.107200064 -0.02751372 -0.025554486 -0.05462812
0.15946472 -0.013666496 0.0047646295 -0.12826294 0.060528483 0.04254164 -0.18340242 -0.09731217
-0.05933648 -0.11542805 -0.08849361 0.05305835 -0.01052323 -0.069746114 -0.1202337 -0.07248359
0.05579432 -0.103586935 0.19794019 -0.017772257 -0.08366688 -0.020292923 -0.11324172 -0.028615331
-0.01305898 0.121938854 -0.0012634412 0.0424983 0.004580206 -0.02403816 0.0023411491 -0.02464082
-0.02518885 0.01807463 -0.10750241 -0.09799992 0.084506325 -0.049372207 -0.109948754 -0.25215295
-0.021361336 -0.16582179 0.19915874 0.2255088 0.052027993 -0.13721532 -0.07087736 -0.04374086
-0.15242651 -0.04257992 -0.017832708 0.12308338 0.039850503 0.009386255 0.12557767 0.056997072
0.12226878 -0.020050444 0.023263222 -0.016435131 0.061855894 -0.16400409 0.094682604 0.023731137
0.04310007 0.10273653 0.055065453 0.0072700307 -0.1600704 0.061877728 -0.1467806 0.1434466
-0.08386437 0.082811356 0.07395019 0.21754919 -0.017772868 0.0878895 0.17623681 0.0511338
-0.15930669 0.1748649 -0.08786437 -0.22550707 -0.27662945 -0.23876102 -0.25243986 0.05874884
-0.09462014 -0.052519336 0.0150231635 -0.10457839 0.034505125 -0.080540664 0.065563366 0.046881117
0.15982512 0.26337123 0.1710732 -0.097800456 0.11012604 0.21067858 -0.11448361 0.10151812
0.0152231185 -0.047591332 -0.03737842 0.045186155 0.010268949 -0.10378073 -0.16029696 -0.07689149
-0.13051929 -0.10142556 0.14912872 0.12463535 0.051897634 0.15053935 -0.11727795 0.07376683
-0.095530026 -0.12192438 0.19472373 -0.046472218 -0.09136532 -0.037001867 0.12311415 0.030578727
-0.08739997 -0.13239278 -0.1443001 0.14550847 -0.018118536 0.05103126 -0.08692255 -0.092791244
0.091586396 -0.070361435 -0.015057614 0.09712485 0.106067814 0.04398759 0.021040263 0.0050020195
-0.050084665 0.11577482 0.054714672 0.028154628 -0.13073161 -0.10555566 0.014320254 -0.0037934014
0.17539367 0.029235134 0.010459227 -0.15755154 -0.014540469 -0.11743827 0.08439207 0.14047408
0.17302631 0.17312205 0.0014046973 -0.045559116 -0.01520127 0.102409996 0.05044409 0.12308939
0.055487912 0.10269621 -0.037136406 0.016335826 0.012930761 0.10730136 -0.025073461 -0.0018580094
-0.27147356 0.17093424 -0.15248974 0.15076785 -0.10678804 -0.22707136 0.010479568 0.10108122
00000000: 623b 023d 222c d9ba fdcf 393d 5a69 5d3c
00000010: 92ca f23c 9fe7 1b3d 3090 ea3d 8ee1 a73d
00000020: d34c f63d 6a2c 1c39 23ea 44bd 57c1 49be
00000030: abea d23d 285f 973c 03bf 613d de12 a4bd
00000040: 589f af3c bcc0 18be f352 2f3e 44f8 483e
00000050: 1732 783c ab99 20bd 6db6 cabd bfe5 c5bd
00000060: 7e33 72be d504 23bd c79e e1bc a743 d63d
00000070: 5a19 b63c bbb5 d53d 2e4c c4bb f7e7 11bd
00000080: 0f16 a43c 419e 64bc 07da 82bd 9cb6 16be
00000090: fd66 50bc a959 44be 2fb7 923e 4a1f 463e
000000a0: be63 183d fd7e c43d ebda 983c 731a 92bc
000000b0: d1bc a9bd 91ce 3f3e 205c 10bd 6c10 033e
000000c0: 8142 0ebe 7a36 ae3d af60 5d3d 2404 e63d
000000d0: 6df9 18bd 6245 9b3c 37a3 2c3e b0a1 af3d
000000e0: 224e 84bd 2dab 963d cbce 7abd 8951 e2bd
000000f0: c08f 8fbe 3962 82be 84cd d83d 1ce7 7c3e
00000100: 451a dbbb e2e4 923d be6b 3cbe aa81 68be
00000110: b58b db3d 7464 e1bc a457 d1bc bcc1 5fbd
00000120: b84a 233e 70e9 5fbc 9c20 9c3b 5c57 03be
00000130: b7ec 773d 2540 2e3d d8cd 3bbe 9a4b c7bd
00000140: cf0a 73bd 8b65 ecbd 233c b5bd b653 593d
00000150: a069 2cbc 0dd7 8ebd 163d f6bd 4772 94bd
00000160: 9688 643d 6325 d4bd d5b0 4a3e 2097 91bc
00000170: 8b59 abbd 583d a6bc 46eb e7bd b36a eabc
00000180: 55f5 55bc 14bb f93d 0d9a a5ba b312 2e3d
00000190: 8d15 963b adeb c4bc f76d 193b 8cdb c9bc
000001a0: d958 cebc 3f11 943c 392a dcbd 2fb4 c8bd
000001b0: a711 ad3d 833a 4abd d02c e1bd 311a 81be
000001c0: f8fd aebc 30cd 29be 45f0 4b3e c7eb 663e
000001d0: 4e1b 553d 2c82 0cbe 2628 91bd 9e29 33bd
000001e0: b215 1cbe 4868 2ebd e615 92bc 2413 fc3d
000001f0: 483a 233d cfc8 193c 6f97 003e c375 693d
00000200: 0e68 fa3d d440 a4bc 8392 be3c f8a2 86bc
00000210: 9b5c 7d3d b0f0 27be f4e8 c13d cd67 c23c
00000220: b389 303d 8867 d23d 508c 613d 7039 ee3b
00000230: 7fe9 23be 8073 7d3d a74d 16be aae3 123e
00000240: 15c1 abbd 0099 a93d 3273 973d 37c5 5e3e
00000250: 6898 91bc 69ff b33d 6c77 343e ad71 513d
00000260: 4b21 23be c90f 333e 3cf2 b3bd 53eb 66be
00000270: 60a2 8dbe c57d 74be cc3f 81be a0a2 703d
00000280: 34c8 c1bd 841e 57bd b723 763c 322d d6bd
00000290: 3f55 0d3d 81f2 a4bd 1646 863d 6a06 403d
000002a0: 32a9 233e 98d8 863e d02d 2f3e 9b4b c8bd
000002b0: c389 e13d 20bc 573e 6276 eabd bbe8 cf3d
000002c0: 636a 793c 21ef 42bd 1d1a 19bd 1e15 393d
000002d0: 183f 283c fe8a d4bd e324 24be 4979 9dbd
000002e0: d9a6 05be 34b8 cfbd 33b5 183e d240 ff3d
000002f0: 9d92 543d fd26 1a3e 6c2f f0bd 1013 973d
00000300: 3fa5 c3bd 7db3 f9bd a865 473e a759 3ebd
00000310: be1d bbbd 458f 17bd 4523 fc3d 3d80 fa3c
00000320: c1fe b2bd f991 07be 68c3 13be 2c00 153e
00000330: 536d 94bc 2806 513d 7304 b2bd 5609 bebd
00000340: a691 bb3d a819 90bd 36b4 76bc 65e9 c63d
00000350: 153a d93d 552c 343d a15c ac3c fbe7 a33b
00000360: 9425 4dbd 591b ed3d 7e1c 603d 89a4 e63c
00000370: 82de 05be 912d d8bd 809f 6a3c b79a 78bb
00000380: 669a 333e 857e ef3c 2d5d 2b3c 3155 21be
00000390: 263b 6ebc 7a83 f0bd c0d5 ac3d 70d8 0f3e
000003a0: cf2d 313e e846 313e d21d b83a 329c 3abd
000003b0: bf0e 79bc 55bc d13d 769e 4e3d 4a16 fc3d
000003c0: 4b47 633d 6452 d23d 581c 18bd b6d2 853c
000003d0: 8bdb 533c d1c0 db3d dc66 cdbc 7388 f3ba
000003e0: 95fe 8abe 6309 2f3e 4526 1cbe e362 1a3e
000003f0: b0b3 dabd 6585 68be 7eb2 2b3c ac03 cf3d

downsample_layers.3.1.bias f4 [24]
0.22249614 0.14135543 -0.036070798 -0.0018789164 -0.06198448 0.0036443947 0.11485229 0.024380274
-0.0980756 0.08045553 0.024403866 0.08108399 0.0380818 -0.0010978892 -0.019099342 -0.08325761
-0.025627837 -0.035188183 -0.08528918 0.01889812 0.17843188 0.017641917 -0.0056733442 -0.064830706
00000000: 07d6 633e 7abf 103e f9be 13bd f945 f6ba
00000010: 70e3 7dbd ccd6 6e3b ad37 eb3d 24b9 c73c
00000020: dcdb c8bd dec5 a43d 9eea c73c 5d0f a63d
00000030: a9fb 1b3d 0ce7 8fba 3976 9cbc f782 aabd
00000040: 78f1 d1bc 7c21 10bd 18ac aebd 3bd0 9a3c
00000050: d9b6 363e c885 903c 76e7 b9bb f6c5 84bd

stages.0.0.gamma f4 [24]
1.574604e-05 -0.00064993056 -0.00065928267 0.0002348771 -0.0021897599 -0.0010018244 -0.004462221 -0.000288863
-0.0035421418 -8.695746e-05 0.0004734228 0.00027033724 -0.0005196764 -0.000116616546 0.0002475267 -0.0031072756
-0.0013757665 -2.6298827e-05 -0.0033310612 -0.00016171658 9.593347e-05 0.0024755201 3.8073926e-05 0.003653663
00000000: 5d16 8437 1a60 2aba b6d3 2cba 5749 7639
00000010: 1382 0fbb a64f 83ba d337 92bb 8972 97b9
00000020: 4723 68bb ee5c b6b8 bc35 f839 0dbc 8d39
00000030: e53a 08ba 0890 f4b8 79c6 8139 6fa3 4bbb
00000040: 1053 b4ba 4d9c dcb7 ef4d 5abb 7792 29b9
00000050: e42f c938 563c 223b 91b1 1f38 4b72 6f3b

stages.0.0.dwconv.weight f4 [24, 1, 3, 3]
-0.032880753 0.07973834 -0.10888442 -0.025511317 0.12073279 -0.05319369 -0.051708087 0.081427135
-0.037168518 0.01492304 -0.0003277985 -0.050912734 -0.010359247 -0.00067015295 -0.029527111 -0.026920551
-0.0452677 -0.07260328 -0.08858163 -0.056063242 -0.068791226 -0.0036575168 0.062381092 0.0032501598
-0.012798316 0.04069277 0.0013481596 0.023823217 -0.003077386 0.012062471 -0.020045541 -0.012135701
-0.03389431 0.011120712 0.0037437563 -0.007550757 -0.029160822 -0.017501337 0.03762711 0.0005239397
-0.009409488 0.0184084 0.09294535 -0.020250205 0.045756843 0.0080085015 -0.0146432975 0.019571092
-0.03282143 -0.029676143 -0.022123573 -0.07121531 -0.0067707384 0.030143304 0.05395711 0.04197366
0.0009752114 0.020189986 -0.00024753666 -0.041804925 -0.02386977 -0.03297229 0.0046033324 0.027187094
0.014288561 0.069806755 0.021515368 -0.03211342 -0.0052117403 0.036752224 -0.034765877 -0.016937602
-0.018754974 -0.017003741 -0.063733876 0.04523748 0.06636504 -0.03656473 -0.010129045 0.04285881
-0.07371357 0.04150126 -0.016624857 0.08547593 -0.00980134 -0.031190144 0.026803492 -0.0045837476
-0.016625613 -0.01721247 -0.015241646 8.4009305e-05 -0.041710395 0.023922589 0.0240231 -0.022453185
0.025083344 0.02637861 0.018427152 0.3360126 0.34923065 0.3704005 0.36673552 0.3021181
0.38641667 0.33799407 0.38104388 0.3842095 -0.0019536987 0.009479302 0.048122752 -0.0978726
0.00021836787 -0.002521053 -0.015365269 0.06013097 0.06151858 0.023350026 -0.029627932 0.027396724
0.034371886 0.039404247 0.012702153 0.020571405 0.007428865 0.008153768 -0.010620605 0.03623594
-0.0972518 0.056581944 0.14691369 0.0006948571 -0.014005166 0.0101273935 -0.042441662 -0.014475853
0.016152624 -0.011082873 0.058856353 0.025252637 -0.039238885 0.020217 -0.009339896 -0.037948746
0.107763596 0.09325145 0.031360827 0.022260968 -0.008803155 -0.069334894 0.0033768925 -0.062209915
-0.08794049 -0.033856485 -0.016539844 -0.017284596 0.04796887 0.025794975 -0.005465622 0.059843455
0.026156196 0.034766972 0.0046210038 -0.01413335 0.008612542 -0.00044109215 0.03394714 0.005557494
0.00073891954 -0.019505633 0.001266437 0.043174557 0.11958935 -0.015374784 0.03212768 0.09356209
0.029465148 0.09731417 0.045742825 0.0045859218 0.07756232 -0.0064131604 -0.04467705 0.06384342
0.03614389 -0.0104193725 0.08409985 0.012673144 -0.020057976 0.013829673 -0.020270763 0.011182314
-0.0251665 0.013135395 0.05941932 0.023916634 0.0549694 0.0695283 -0.037799146 0.018172428
-0.019586308 -0.10534751 0.028740706 0.012966473 -0.054742213 0.03978973 0.019562643 0.0446517
-0.030193295 0.050456412 0.0030428923 -0.013324269 0.054883763 0.019245923 -0.0037893981 -0.003773676
00000000: f8ad 06bd db4d a33d cbfe debd 1cfd d0bc
00000010: c142 f73d a0e1 59bd dccb 53bd 45c3 a63d
00000020: 043e 18bd c47f 743c 5fdc abb9 df89 50bd
00000030: d5b9 29bc 34ad 2fba d7e2 f1bc 7d88 dcbc
00000040: a06a 39bd 07b1 94bd 496a b5bd 92a2 65bd
00000050: 6ae2 8cbd f3b2 6fbb 5183 7f3d a200 553b
00000060: 07b0 51bc 76ad 263d bbb4 b03a e828 c33c
00000070: f8ad 49bb aca1 453c 8c36 a4bc d2d4 46bc
00000080: c3d4 0abd a633 363c cf59 753b 576c f7bb
00000090: ade2 eebc f75e 8fbc e21e 1a3d 0059 093a
000000a0: 412a 1abc 36cd 963c 225a be3d c2e3 a5bc
000000b0: 876b 3b3d 1736 033c 71ea 6fbc 8e53 a03c
000000c0: c46f 06bd 621b f3bc 7f3c b5bc 55d9 91bd
000000d0: 12dd ddbb 17ef f63c 2102 5d3d 93ec 2b3d
000000e0: 54a5 7f3a 7865 a53c cfc7 81b9 a43b 2bbd
000000f0: 898a c3bc f40d 07bd 8dd7 963b 78b7 de3c
00000100: 921a 6a3c d8f6 8e3d ff40 b03c 5d89 03bd
00000110: 3fc7 aabb 8089 163d aa66 0ebd bac0 8abc
00000120: 08a4 99bc 6e4b 8bbc e886 82bd f04a 393d
00000130: 65ea 873d e6c4 15bd 4bf4 25bc b88c 2f3d
00000140: 24f7 96bd 3afd 293d da30 88bc 010e af3d
00000150: cd95 20bc 7982 ffbc ff92 db3c 4333 96bb
00000160: 7032 88bc 2a01 8dbc 19b8 79bc 272e b038
00000170: 85d8 2abd 4ef9 c33c 18cc c43c beef b7bc
00000180: 967b cd3c f417 d83c 8af4 963c d809 ac3e
00000190: 5cce b23e 22a5 bd3e c2c4 bb3e 39af 9a3e
000001a0: 68d8 c53e 8f0d ad3e 2f18 c33e 1cb7 c43e
000001b0: a009 00bb 134f 1b3c 5d1c 453d 6e71 c8bd
000001c0: aef9 6439 4038 25bb 9cbe 7bbc e44b 763d
000001d0: e8fa 7b3d 8e48 bf3c 47b6 f2bc 186f e03c
000001e0: 89c9 0c3d 5966 213d b11c 503c 5d85 a83c
000001f0: d66d f33b 6297 053c 0c02 2ebc 236c 143d
00000200: f42b c7bd 78c2 673d 8b70 163e 1227 363a
00000210: ec75 65bc 5eed 253c 4fd7 2dbd 212c 6dbc
00000220: 8252 843c f094 35bc 5c13 713d 9ede ce3c
00000230: f4b8 20bd 1f9e a53c 5d06 19bc 2570 1bbd
00000240: 29b3 dc3d 9efa be3d 3674 003d a25c b63c
00000250: 1c3b 10bc 74ff 8dbd db4e 5d3b d3cf 7ebd
00000260: 251a b4bd 19ad 0abd 917e 87bc 6d98 8dbc
00000270: 017b 443d fc4f d33c f618 b3bb 691e 753d
00000280: 8545 d63c d067 0e3d ca6b 973b 918f 67bc
00000290: 9f1b 0d3c 6342 e7b9 280c 0b3d a31b b63b
000002a0: 0db4 413a 47ca 9fbc 93fe a53a ced7 303d
000002b0: 43eb f43d 85e6 7bbc 5098 033d 7b9d bf3d
000002c0: e560 f13c a74c c73d d45c 3b3d 8045 963b
000002d0: fed8 9e3d 7d25 d2bb 48ff 36bd 57c0 823d
000002e0: 9e0b 143d 04b6 2abc 8b3c ac3d 05a3 4f3c
000002f0: a050 a4bc da95 623c df0e a6bc 0636 373c
00000300: fa29 cebc d735 573c ac61 733d d1ec c33c
00000310: 9827 613d da64 8e3d 47d3 1abd 58de 943c
00000320: 7773 a0bc 6fc0 d7bd a171 eb3c 5471 543c
00000330: 5f39 60bd 8efa 223d d641 a03c b3e4 363d
00000340: ee57 f7bc 62ab 4e3d 436b 473b 094e 5abc
00000350: cccd 603d a0a9 9d3c 8d57 78bb c74f 77bb

stages.0.0.dwconv.bias f4 [24]
-0.012021499 0.034752276 -0.025663938 0.034820806 0.029417947 0.051486857 0.04331387 0.09839152
-0.032963667 0.035614397 0.06373167 -0.36580214 -0.028610196 0.0063291998 0.016508125 0.0531896
0.04027747 0.09727357 -0.030442499 0.044610377 0.043971796 -0.0070312745 0.051997405 -0.06857732
00000000: d2f5 44bc 6758 0e3d 2e3d d2bc 43a0 0e3d
00000010: e8fd f03c e2e3 523d e269 313d 7e81 c93d
00000020: e904 07bd 67e0 113d c085 823d 6b4a bbbe
00000030: ee5f eabc 2d65 cf3b 0c3c 873c 57dd 593d
00000040: fdf9 243d 5e37 c73d 8c62 f9bc 5fb9 363d
00000050: c51b 343d 9b66 e6bb 3bfb 543d 4472 8cbd

stages.0.0.norm.weight f4 [24]
0.7932518 0.80686015 0.822121 0.80664843 0.7507899 0.70819044 0.82851243 0.7429431
0.789546 0.6905197 0.7328203 0.39192003 0.8546242 0.8076381 0.8037418 0.8004421
0.7595925 0.6866072 0.8055215 0.7032626 0.6753591 0.79457307 0.74257654 0.85998154
00000000: 8d12 4b3f 638e 4e3f 8676 523f 8380 4e3f
00000010: c433 403f f84b 353f 6419 543f 8531 3e3f
00000020: b01f 4a3f e6c5 303f 1c9a 3b3f bea9 c83e
00000030: a7c8 5a3f 5fc1 4e3f 06c2 4d3f c6e9 4c3f
00000040: a774 423f 7dc5 2f3f a836 4e3f 0509 343f
00000050: 55e4 2c3f 2469 4b3f 7f19 3e3f c027 5c3f

stages.0.0.norm.bias f4 [24]
-0.12796055 -0.13019326 -0.12832329 -0.1496445 -0.18055452 -0.17097965 -0.1476962 -0.18028209
-0.1611244 -0.15596029 -0.17477256 0.5626222 -0.1293372 -0.16595712 -0.17436512 -0.15934527
-0.1643402 -0.18013416 -0.18673366 -0.25041133 -0.164241 -0.13637258 -0.13602279 -0.17053704
00000000: 1708 03be 6251 05be 2e67 03be 683c 19be
00000010: 49e3 38be 4a15 2fbe ac3d 17be de9b 38be
00000020: cbfd 24be 0eb4 1fbe 94f7 32be 0208 103f
00000030: f970 04be aaf0 29be c58c 32be 682b 23be
00000040: cc48 28be 1775 38be 1c37 3fbe ea35 80be
00000050: cb2e 28be 41a5 0bbe 8f49 0bbe 43a1 2ebe

stages.0.0.pwconv1.weight f4 [48, 24]
-0.07300925 0.075618945 0.035745773 0.046313033 -0.010548846 -0.052608397 -0.017722372 0.01137532
-0.030022092 -0.0031760833 -0.011490473 -0.0024000916 0.08655453 0.0069049047 -0.00066477014 0.054748986
0.017656773 -0.0049232943 -0.036010608 0.010105906 -0.0113219675 0.010232385 -0.015881263 -0.018041123
-0.0205196 0.0900082 0.06295317 0.01171052 0.073330864 0.016886357 -0.057074185 0.0332281
-0.00055847265 0.040202808 0.049219396 0.006245012 0.037715882 0.01079252 0.021075511 0.045798622
0.04385143 -0.04140028 -0.04265092 0.026956914 0.049818892 0.04731639 0.061796334 -0.036631733
-0.013535751 0.01910977 -0.07068791 -0.021777691 -0.060132228 -0.026982466 0.00022485804 -0.031899173
-0.005066307 -0.00055398035 -0.02402653 0.008562679 0.011090293 -0.026163971 -0.033458408 0.002267844
0.0039804536 -0.001707353 -0.0074935933 -0.023508543 0.014173695 0.010708058 0.006773509 -0.06068174
0.018429797 0.048556145 -0.013220348 -0.0018106211 0.015963405 0.026331251 -0.019057814 -0.017101306
-0.0058496417 -0.01408285 -0.0173247 0.014434137 -0.03751986 -0.0048440625 0.015221615 0.02983827
-0.028057478 -0.016074345 -0.0044604107 -0.019588586 -0.0022527531 -0.004889609 0.0035963035 -0.019282782
0.009438363 0.06295931 0.03456479 0.01995525 -0.0009772637 -0.01044401 0.0004528863 0.020516904
0.018284503 0.009994463 -0.0005373389 0.0014186449 -0.0084230965 0.039719008 0.023676593 0.039838485
0.02351838 0.021143092 -0.044250477 0.0013290984 -0.0045222337 -0.007652559 0.042267293 0.035099383
0.05693169 -0.0048976406 0.030473799 0.08503648 -0.0065507814 -0.033967867 0.0021578106 0.024812037
0.0083159795 -0.032793634 -0.02097258 0.008159569 -0.044550102 0.032519743 0.023585785 -0.007838641
0.0035208962 0.0729553 0.025180388 0.04823715 0.022049377 0.043916367 0.01373067 0.04592065
0.015230894 0.01535874 0.09350755 0.030585608 0.035375 -0.00012756673 -0.084007576 0.023545204
0.015821552 0.093548395 0.06056868 -0.0050636376 0.0107968105 -0.0052778563 0.09828202 0.020539636
0.07703411 0.0391447 0.04282719 0.025580963 0.014819355 0.018929388 0.010026814 0.047807783
-0.06373644 -0.004644296 0.008718274 -0.037612457 -0.0140924305 -0.015556903 -0.033609524 0.02478992
0.016457593 0.011105125 -0.0055408706 0.00062846224 0.07099851 -0.010139347 -0.023821436 -0.03945459
0.020189313 0.017361581 -0.03017645 -0.009540106 -0.01083316 -0.05417273 -0.038053133 -0.035138756
-0.017020402 0.0033790704 0.03742239 -0.011216911 0.04384708 -0.0037624591 0.0068570613 0.022491299
0.016682968 0.027544634 -0.0011473735 0.0017884319 0.023006344 0.024825066 0.005831501 0.02593197
0.02710508 0.018902607 0.023930654 0.0044797207 -0.0067506754 0.018522654 -0.007592656 -0.01131042
-0.010065245 0.03846788 0.02336481 -0.0094077345 0.014950877 0.017919585 0.004806371 -0.00014213844
-0.00415699 -0.009228491 0.0072104493 0.009700158 0.024755526 -0.014044826 -0.0022600507 -0.0075240307
0.065595955 -0.023181649 -0.013738153 0.01751586 -0.011196143 -0.0064625344 -0.013040736 -0.07300913
0.10002375 -0.04395343 -0.017208459 0.013910723 0.04155059 0.02667412 0.003577651 -0.0017459851
-0.0056470856 -0.018487368 -0.010347093 0.01075934 -0.11204295 -0.024577456 -0.030880477 -0.00452895
00000000: e085 95bd 1bde 9a3d 296a 123d bcb2 3d3d
00000010: 11d5 2cbc e77b 57bd 822e 91bc 8d5f 3a3c
00000020: e4f0 f5bc d625 50bb 8942 3cbc db4a 1dbb
00000030: 8043 b13d 8a42 e23b f843 2eba 7940 603d
00000040: f0a4 903c 9653 a1bb dc7f 13bd 3e93 253c
00000050: c67f 39bc bca5 273c 6c19 82bc faca 93bc
00000060: b818 a8bc 3856 b83d 97ed 803d 7bdd 3f3c
00000070: 7e2e 963d 4255 8a3c 9fc6 69bd 301a 083d
00000080: 7766 12ba b3ab 243d 479a 493d f5a2 cc3b
00000090: f87b 1a3d 1cd3 303c 8da6 ac3c 5697 3b3d
000000a0: 8f9d 333d 5793 29bd bbb2 2ebd bfd4 dc3c
000000b0: e50e 4c3d d5ce 413d 271e 7d3d 280b 16bd
000000c0: 0ec5 5dbc 188c 9c3c d3c4 90bd 2167 b2bc
000000d0: 364d 76bd 550a ddbc dfc7 6b39 b5a8 02bd
000000e0: 4303 a6bb fe38 11ba 49d3 c4bc 7b4a 0c3c
000000f0: 0fb4 353c d355 d6bc af0b 09bd 1ca0 143b
00000100: 776e 823b 43c9 dfba d18c f5bb fd94 c0bc
00000110: c938 683c da70 2f3c 50f4 dd3b 6b8d 78bd
00000120: 16fa 963c cfe2 463d 299a 58bc 5d52 edba
00000130: b0c5 823c a3b4 d73c 221f 9cbc 0a18 8cbc
00000140: 5aae bfbb c1bb 66bc 87ec 8dbc 297d 6c3c
00000150: 6dae 19bd f1ba 9ebb 1564 793c 636f f43c
00000160: ccd8 e5bc 58ae 83bc a328 92bb 3e78 a0bc
00000170: eda2 13bb 0339 a0bb f6af 6b3b edf6 9dbc
00000180: 5da3 1a3c d0f0 803d cf93 0d3d 3179 a33c
00000190: 8717 80ba 5a1d 2bbc 5f71 ed39 1113 a83c
000001a0: 62c9 953c d1bf 233c 34dc 0cba d3f1 b93a
000001b0: 0701 0abc 66b0 223d 6af5 c13c ae2d 233d
000001c0: 9ea9 c03c 4734 ad3c fd3f 35bd 2435 ae3a
000001d0: 3f2f 94bb 51c2 fabb 7820 2d3d 5fc4 0f3d
000001e0: 3431 693d 637c a0bb 30a4 f93c 9b27 ae3d
000001f0: f0a7 d6bb e421 0bbd 0e6a 0d3b 9d42 cb3c
00000200: bf3f 083c 9e52 06bd b0ce abbc b7af 053c
00000210: 2b7a 36bd 6c33 053d fa36 c13c a56d 00bc
00000220: d6be 663b 9769 953d 1a47 ce3c 5194 453d
00000230: e5a0 b43c a6e1 333d 9bf6 603c 4b17 3c3d
00000240: 008b 793c 3aa3 7b3c e380 bf3d ab8e fa3c
00000250: 60e5 103d 6fc3 05b9 2a0c acbd dfe1 c03c
00000260: 339c 813c 4d96 bf3d dd16 783d dfec a5bb
00000270: 1be5 303c def1 acbb 1548 c93d bd42 a83c
00000280: 0fc4 9d3d 3156 203d 906b 2f3d 2b8f d13c
00000290: e1cc 723c ce11 9b3c 8247 243c 18d2 433d
000002a0: 4088 82bd 2e2f 98bb 17d7 0e3c 850f 1abd
000002b0: f0e3 66bc 61e2 7ebc 24aa 09bd 3b14 cb3c
000002c0: 13d2 863c 45f2 353c 3190 b5bb 63bf 243a
000002d0: ab67 913d 811f 26bc 2c25 c3bc 239b 21bd
000002e0: 0f64 a53c e039 8e3c 9a34 f7bc 1b4e 1cbc
000002f0: 917d 31bc 39e4 5dbd 9add 1bbd a8ed 0fbd
00000300: 5f6e 8bbc 6573 5d3b 3848 193d 22c7 37bc
00000310: ff98 333d 9793 76bb 33b1 e03b ac3f b83c
00000320: b8aa 883c 49a5 e13c 7763 96ba d169 ea3a
00000330: cd77 bc3c f05d cb3c 2d16 bf3b 486f d43c
00000340: 790b de3c a4d9 9a3c 380a c43c 9fca 923b
00000350: c534 ddbb d2bc 973c d1cb f8bb 574f 39bc
00000360: b3e8 24bc 7f90 1d3d 8f67 bf3c e622 1abc
00000370: 86f4 743c 18cc 923c c37e 9d3b ff0a 15b9
00000380: 5c37 88bb 1933 17bc a245 ec3b 69ed 1e3c
00000390: 1acc ca3c 451c 66bc 5c1d 14bb 258c f6bb
000003a0: 2c57 863d 71e7 bdbc fd15 61bc 6c7d 8f3c
000003b0: 0770 37bc abc3 d3bb d0a8 55bc d085 95bd
000003c0: 40d9 cc3d 8308 34bd c1f8 8cbc cde9 633c
000003d0: f430 2a3d af83 da3c 0677 6a3b 8ad9 e4ba
000003e0: 300b b9bb d272 97bc db86 29bc f147 303c
000003f0: c676 e5bd a956 c9bc 0ef9 fcbc 9667 94bb

stages.0.0.pwconv1.bias f4 [48]
0.0075456602 0.0093693985 0.004673407 0.0055525405 -0.013758839 0.010575509 0.00078473554 -0.0042109317
0.0023153431 0.012322955 -0.0035945324 -0.0035703331 -0.004699549 0.0035396921 0.010917404 -0.0008172148
0.014490998 -0.009542642 0.0028570737 0.0002654793 0.0062354407 -0.0044973735 0.012697598 -0.010658953
0.0019242101 0.005856415 -0.0020458477 0.022269178 -0.008341156 -0.0036939066 0.0077764927 0.000793015
-0.0150081795 -0.017625725 -0.0016262435 -0.016251562 -0.02320512 0.008466267 0.008311671 -0.0026564335
0.010415895 0.0067721065 0.017796773 -0.0050780736 -0.009131244 0.017188948 0.013265469 -0.0134959165
00000000: 9641 f73b 1b82 193c 6123 993b 16f2 b53b
00000010: c16c 61bc e644 2d3c b6b6 4d3a dbfb 89bb
00000020: 03bd 173b 38e6 493c 3f92 6bbb 40fc 69bb
00000030: adfe 99bb 2efa 673b e9de 323c 5b3a 56ba
00000040: a76b 6d3c be58 1cbc be3d 3b3b 0730 8b39
00000050: ab52 cc3b b45e 93bb 9609 503c e4a2 2ebc
00000060: c735 fc3a 2be7 bf3b a113 06bb da6d b63c
00000070: 58a9 08bc 7815 72bb f3d1 fe3b 56e2 4f3a
00000080: dee4 75bc d363 90bc ad27 d5ba ff21 85bc
00000090: aa18 bebc 19b6 0a3c ad2d 083c 8f17 2ebb
000000a0: 6ea7 2a3c 8ce8 dd3b 8aca 913c f865 a6bb
000000b0: 379b 15bc d6cf 8c3c 6957 593c fa1d 5dbc
